2layer_cora/gcn_cora.pt (torch_old, 93060 bytes, 4 tensors)

conv1.weight f4 [1433, 16]
000000 67 75 d1 3b 44 98 83 3d 41 b1 80 bd 6b 85 81 bd
       0.0063921693 0.06425527 -0.062838085 -0.063242756
000010 d0 df 67 bc e6 0e 39 bc bd 7d e0 3c 58 1b 8e 3c
       -0.014152482 -0.011295056 0.027403707 0.017347023
000020 19 5e 98 bb fa d0 85 3c 57 c8 0f 3d 73 b8 5a 3d
       -0.004649889 0.016335 0.03510317 0.05339856
000030 0a e3 57 3c f7 9d 36 3d 34 bd 9f b8 50 96 f0 bc
       0.013176689 0.04458424 -7.616953e-05 -0.02936855
000040 15 65 83 3d 22 de e4 bd f7 05 1f 3e 76 dd 4e 3e
       0.06415764 -0.11175181 0.15529619 0.20201668
000050 10 78 5c 3b 3a e6 4c 3d 33 0c 1d bd 0c e6 e2 3d
       0.0033640899 0.05002425 -0.038341712 0.11079034
000060 ad aa d1 3d 79 52 6a 3d f5 de 80 bd 28 a7 0c be
       0.10237632 0.05720756 -0.06292526 -0.1373564
000070 ee 4f b8 3d 8c 1c d0 bd bc 34 c6 bd 18 57 1b 3e
       0.089996204 -0.10161695 -0.09678027 0.15169942
000080 55 80 05 3e 78 dc af bc cc 8c 1c be 1e 7e ca bd
       0.13037236 -0.021467432 -0.15288085 -0.09887336
000090 a6 95 7d bd b0 a6 13 be 76 58 07 bc b9 ac f7 3d
       -0.061910294 -0.14419055 -0.008260837 0.12093491
0000a0 c9 e1 2d 3d d4 a9 21 3e 48 5e 14 be 3b dc 8d 3d
       0.042451654 0.1578744 -0.1448909 0.06926771
0000b0 d4 24 f1 bd 0c 09 94 3d 44 e8 ed bd 18 a2 5d 3d
       -0.117746025 0.07228288 -0.11616567 0.054109663
0000c0 aa 84 dc 3d 10 c5 2a 3b 09 cb ef bc 1b ee 3b bd
       0.10767491 0.00260574 -0.02927162 -0.045881372
0000d0 b4 38 0c 3e 55 40 04 be db 52 c8 bc 64 1b 23 3e
       0.13693506 -0.12915166 -0.024453571 0.15928417
0000e0 48 73 30 be 59 70 86 3d 24 bc 73 bd 96 ac d2 3d
       -0.17231476 0.06564397 -0.059505597 0.102868244
0000f0 e0 a1 67 bc b5 f4 1f 3e 4c 3d bc 3d 02 db d7 bd
       -0.014137715 0.15620692 0.09191379 -0.10539819
000100 4e 98 b4 3d ad 38 ab bd 19 72 9f 3e e2 3f aa 3e
       0.08818112 -0.083604194 0.31141737 0.33251864
000110 57 00 89 3e c7 e2 ec 3e e5 91 ab 3e a3 4b b5 be
       0.26758072 0.46266767 0.33509746 -0.3540927
000120 ac 17 bd 3e 75 30 6c 3e 5a de 25 bd 2d ea b7 be
       0.36932123 0.2306536 -0.040495254 -0.3592085
000130 0c 4f 04 be c6 d1 94 be 10 ec 99 be 12 1d 69 3e
       -0.12920779 -0.29066294 -0.30062914 0.22764996
000140 c7 20 87 3c d3 dd 52 bd fc f1 64 3d a1 1f 4f 3d
       0.016495122 -0.05148108 0.055894837 0.050567273
000150 f2 c6 0b 3d dd cc 8a 3a 34 31 ba bd ec b2 c1 3b
       0.034125276 0.0010589618 -0.09091416 0.0059112217
000160 46 74 26 bd 82 3b 82 bc 5a 8d 59 bc 31 df 19 bc
       -0.04063823 -0.015897516 -0.01327833 -0.009391592
000170 32 df 5c 3c 85 c7 c6 3c c5 3c 25 3d 4f f8 33 3c
       0.013480948 0.02426506 0.040341157 0.010984494
000180 4f 25 bd bc 72 96 bb bc 9a 37 a2 bd 8d b2 c4 bd
       -0.02308908 -0.022898886 -0.079207614 -0.09604368
000190 b0 e1 62 bb 83 eb 00 3d ed 91 a0 3c b9 1d be bc
       -0.0034619384 0.0314746 0.019600833 -0.023207532
0001a0 2a 06 63 3c 84 5a 83 3c 32 00 73 3d 43 9a 19 3e
       0.01385645 0.016034372 0.05932636 0.15000252
0001b0 8b 74 ca bd 11 33 29 3e 86 32 22 3d 73 75 46 3d
       -0.0988551 0.16523387 0.039598964 0.048451852
0001c0 44 b8 39 3d 78 9e f3 bc cb af 78 3c cd f1 c6 3c
       0.045341745 -0.02973865 0.015178631 0.024285221
0001d0 e0 7e 1e 3c eb bd 61 bd d3 fb c3 bc 87 a3 51 3d
       0.009673804 -0.05511276 -0.02392379 0.051181342
0001e0 23 9c 2a 3d f2 bd 4a 3c 15 33 b5 3a d1 81 6b bd
       0.04165281 0.012374388 0.0013824428 -0.05749685
0001f0 2e d0 8a 3d 65 c8 6f 3c 42 8a 07 bd 80 13 0e 3d
       0.067779884 0.01463518 -0.033090837 0.034686565
000200 e9 89 24 3d 6f 06 0d bd 3c c1 85 3d f6 c4 85 3c
       0.040170584 -0.034429964 0.06530997 0.01632927
000210 59 b7 49 3c 07 e7 46 3d 0f d1 f4 3c 25 53 22 bd
       0.01231178 0.04856017 0.029884843 -0.039630074
000220 1e 1c 86 3d 11 7d 90 3d 60 d5 1a bd e0 1a a3 bc
       0.06548332 0.070551045 -0.037801147 -0.019910276
000230 aa be 00 bd a1 ca a9 bc a5 4f 2f bd b7 9f 44 3d
       -0.03143183 -0.020726504 -0.042800564 0.04800388
000240 0c 0e f9 3b 52 68 0c bb 55 47 0b bc 6c cd 0f ba
       0.0076005515 -0.0021424484 -0.008500894 -0.00054856273
000250 e5 d7 e0 ba 59 0f 07 3c 3a 6a d5 37 0d 96 08 bb
       -0.0017154185 0.008243405 2.5441044e-05 -0.002084139
000260 0c 4c c9 3c de c3 3c 3b 2b 6d 2b 3a d6 b8 3a 3b
       0.024572395 0.002880327 0.00065393996 0.0028491518
000270 12 87 9a 3b 85 3f ef 3b 7c 19 4f b9 43 53 9d 3c
       0.0047158087 0.0073012733 -0.00019750552 0.019204741
000280 30 d5 ee bb 09 34 c5 bb eb 65 3f 3c 22 49 00 3b
       -0.0072885975 -0.006018166 0.011682014 0.001957484
000290 f9 09 da ba 47 b1 bc bb 90 9f e2 3a 51 e9 54 3c
       -0.0016635052 -0.005758438 0.0017289985 0.01299508
0002a0 4e f3 06 3c 4e ce 9f 3b 43 cb 85 3a 6c 0f 26 bc
       0.008236719 0.0048768884 0.0010207671 -0.010135513
0002b0 2a 9d f4 3a 85 51 8a 39 78 be 88 3a de 4c 02 3c
       0.0018662561 0.00026382148 0.0010432741 0.007952897
0002c0 55 31 53 ba 57 6e 9e 3c 9a 66 6b bc 18 e5 c8 ba
       -0.0008056362 0.019339724 -0.014367724 -0.0015327064
0002d0 62 63 f4 bc 4a b1 bb 3b 99 de 58 3c b4 be 8f 39
       -0.029832546 0.0057279216 0.013236665 0.0002741717
0002e0 2d 58 f9 3c f8 a8 5d 3a 91 3b 39 3c 2b 78 fd bb
       0.030437553 0.0008455659 0.011305706 -0.0077352724
0002f0 69 d7 d9 3b 1e ec fe bc e6 2d 76 bc 91 68 83 3c
       0.0066479933 -0.031118449 -0.0150255915 0.016041072
000300 fa 59 a0 bc 15 0e 43 bd 8b 45 46 bd 94 f7 b3 bd
       -0.019574154 -0.04762085 -0.048406165 -0.08787456
000310 d4 16 29 3e b6 5e 2b 3e 1c 43 89 3e b4 64 05 be
       0.16512614 0.16735348 0.26809013 -0.13026696
000320 64 4d 55 3e a1 00 67 3e 3f a0 e8 bb a1 d1 e5 3c
       0.20830303 0.22558834 -0.007099181 0.02805406
000330 88 95 16 be 07 c3 99 3c eb 98 15 be f1 ee b0 3d
       -0.14705479 0.018769754 -0.14609115 0.086393245
000340 2d fe 3d 3c 4b 0c 9e bd c2 ca a4 3d 2d c7 ad 3d
       0.011596245 -0.077171884 0.080464855 0.084852554
000350 0d b7 33 3d 17 7c 5c bc 88 33 fb bd 36 a0 c3 3d
       0.043875743 -0.01345732 -0.12265688 0.09552042
000360 a4 ce ea bc 1a a3 01 bc 7e 3d 67 bb 1c 3e 1d bd
       -0.028662987 -0.007912422 -0.0035284455 -0.03838931
000370 5d 4e 9b 3d 73 c2 77 3c b5 f9 a6 3c 01 20 b5 3c
       0.07583306 0.015122044 0.020382741 0.022109987
000380 7d c4 b0 bb 9f 37 b6 bd 75 b5 be 3c 01 cc d4 3c
       -0.005394517 -0.08897328 0.023279885 0.025976183
000390 bd 41 5a 3c de 3a 28 3d f7 d8 22 3d 1c 8f 14 ba
       0.013321337 0.041071765 0.039757695 -0.0005667077
0003a0 9a 63 e1 3d 35 2e b3 3c 0b 52 28 bc 85 57 b3 bd
       0.110053256 0.02187262 -0.010273467 -0.087569274
0003b0 28 6b d0 3b 5a 22 3a bd 31 bb 45 bd d3 ec 8e 3d
       0.0063604303 -0.045442916 -0.048274223 0.069787644
0003c0 85 db 0c 3c 02 88 a6 3d 25 03 fc 3c cd f3 a2 3c
       0.008597259 0.0813141 0.030763218 0.019891644
0003d0 a4 e2 85 3d 2e 07 ca bc e0 8e 47 3e 6a 8d 07 bc
       0.06537369 -0.024661627 0.19488096 -0.008273462
0003e0 06 8e 34 3d ee 1d 14 3d 72 d0 90 3d 53 4b 1b be
       0.044080757 0.036161356 0.07071008 -0.15165453
0003f0 74 96 a3 3c 2f e5 fe bd c3 31 c1 bd ae 38 fb bd
       0.019969203 -0.12446057 -0.094333194 -0.1226667

conv1.bias f4 [16]
000000 8f 39 3f 3e 9a da 7c 3e 6d be 2c 3e b8 85 78 3e
       0.186743 0.24692765 0.16869517 0.2426976
000010 18 31 05 3e 46 bd 28 3e 94 94 61 3e 2e 51 72 3e
       0.13007009 0.16478452 0.22029334 0.2366378
000020 da 96 8e 3e 10 2d 19 3e 09 f0 50 3e 65 05 37 3e
       0.27849466 0.14958596 0.20404066 0.17873152
000030 7c d0 91 3e 86 ca 67 3e 0f 6c 7d 3e 7d 85 63 3e
       0.28479373 0.2263585 0.24748252 0.2221889

conv2.weight f4 [16, 7]
000000 45 69 28 3f a6 d4 2c 3f e9 93 40 bf 2d 4f 5a bf
       0.6578563 0.67511976 -0.75225693 -0.8527706
000010 42 64 3e bf 0f 58 a1 3e 6f 8a 49 3f f7 f4 45 3e
       -0.7437173 0.31512496 0.7872686 0.19331728
000020 01 2a 78 bf 59 30 8d be ac da 5f bf d2 ca 8d 3f
       -0.9693909 -0.2757595 -0.8744304 1.1077521
000030 f2 0b 73 bf 57 d6 49 3f 99 4b 75 bf fa a0 85 bf
       -0.949401 0.7884268 -0.9581848 -1.0439751
000040 1b 91 43 bf e1 b0 5d 3f a7 c6 69 bf e0 9f 14 3f
       -0.7639329 0.8659802 -0.91318744 0.5805645
000050 51 71 3b 3f 85 fd 6b bf 47 68 5c be 22 05 2b bf
       0.7321978 -0.92183715 -0.21524154 -0.6680471
000060 f4 1b 0c 3f ea d9 6c bf c2 4c 51 3f 99 24 65 3f
       0.54730153 -0.9252001 0.8175775 0.8950897
000070 ee 17 44 3f a1 43 8e bf 51 0c 54 bf c0 8f 4a 3f
       0.76599014 -1.1114389 -0.82831293 0.79125595
000080 42 4d 66 bf 09 be 40 3f fd 40 61 bf 65 12 46 bf
       -0.89961636 0.7528997 -0.8798979 -0.7737182
000090 5e 54 6d bf 89 a4 76 3f ad 80 39 3f 43 29 11 3f
       -0.9270686 0.9634481 0.7246197 0.56703585
0000a0 43 5d 62 3f 87 85 31 bf 69 c7 59 3f db 53 75 bf
       0.88423556 -0.6934437 0.850699 -0.9583108
0000b0 82 d4 80 bf 10 b4 76 bf 6d e4 54 3f d2 b7 4c 3f
       -1.0064852 -0.96368504 0.8316105 0.7996799
0000c0 18 b1 28 bf 25 5b d6 3e 88 6e 49 3f 68 14 73 bf
       -0.65895224 0.41866413 0.7868428 -0.9495301
0000d0 51 85 d4 3e 3e b2 98 be 8d 39 4f bf 50 45 4b be
       0.41507962 -0.29823488 -0.8094719 -0.1985066
0000e0 63 47 4b bf 2d 07 1f 3f 35 27 42 3f c2 f7 5f bf
       -0.794058 0.62120324 0.75841075 -0.87487423
0000f0 df 30 42 3f 62 d2 04 3f 71 81 5d bf 5b c7 2a 3f
       0.7585582 0.5188352 -0.86525637 0.6671044
000100 3a 03 08 3f 4a e9 3e bf 35 14 e3 be 4f db f2 be
       0.53129923 -0.7457472 -0.44351354 -0.47432944
000110 b2 a6 08 3f 24 6e 2b bf 4b 83 2c bf c6 d8 29 bf
       0.53379357 -0.66964936 -0.6738784 -0.66346395
000120 0a 27 18 3f 84 d5 d3 3e eb 5f 49 3f 37 a2 5a bf
       0.5943457 0.41373837 0.78661984 -0.8540377
000130 26 90 5c bf 0a 34 6b 3f 91 56 2f bf 83 b6 6d 3f
       -0.86157453 0.9187628 -0.68491465 0.92856616
000140 1d 4d 10 bf 3a 4b 1e bf 37 84 14 bf 89 9c 44 3f
       -0.56367666 -0.61833537 -0.58014244 0.76801354
000150 7e a9 4e bf 39 b5 02 3f 9f ca 5f bf 5c 39 31 3f
       -0.80727375 0.51057774 -0.8741855 0.6922815
000160 ce 3d 0f 3f 48 c4 67 bf cc 27 3c bf b2 be 5a 3f
       0.5595368 -0.90533876 -0.73498225 0.8544723
000170 b6 cb 8a 3e a3 53 4d 3f 1b 51 e1 3e 64 a5 72 bf
       0.27108544 0.80205745 0.4400719 -0.94783616
000180 b0 52 4b bf 95 07 3a bf 20 5b 67 3e 00 ff 6c bf
       -0.79423046 -0.7266782 0.22593355 -0.925766
000190 6f ce 48 3f c3 1a 4f 3f 72 80 cd bd 8a d1 28 bf
       0.7843999 0.8090021 -0.100342646 -0.6594473
0001a0 44 fa 78 3f e9 a5 81 bf fe 2c e8 3e 3a fa 00 3f
       0.97256875 -1.0128757 0.45346826 0.50381815
0001b0 a5 f9 65 bf 75 3f 81 bf 18 cf 82 3e c8 29 58 3e
       -0.8983405 -1.009749 0.25548625 0.21109688

conv2.bias f4 [7]
000000 fd 4f 8d be ae 5c b7 3e e4 7a fd bd 72 0d c3 be
       -0.2760009 0.35812896 -0.12376955 -0.38096195
000010 42 d8 ba 3e cd 84 8f be 04 71 7b be
       0.36493117 -0.28031006 -0.24554831
